Found 12370 files belonging to 39 classes.
Using 9896 files for training.
Found 12370 files belonging to 39 classes.
Using 2474 files for validation.
(32, 7, 7, 512)
(32, 512)
(32, 39)
Model: "model"
_________________________________________________________________
 Layer (type)                Output Shape              Param #   
=================================================================
 input_2 (InputLayer)        [(None, 224, 224, 3)]     0         
                                                                 
 sequential (Sequential)     (None, 224, 224, 3)       0         
                                                                 
 tf.__operators__.getitem (S  (None, 224, 224, 3)      0         
 licingOpLambda)                                                 
                                                                 
 tf.nn.bias_add (TFOpLambda)  (None, 224, 224, 3)      0         
                                                                 
 vgg16 (Functional)          (None, 7, 7, 512)         14714688  
                                                                 
 global_average_pooling2d (G  (None, 512)              0         
 lobalAveragePooling2D)                                          
                                                                 
 dropout (Dropout)           (None, 512)               0         
                                                                 
 dense (Dense)               (None, 39)                20007     
                                                                 
=================================================================
Total params: 14,734,695
Trainable params: 20,007
Non-trainable params: 14,714,688
_________________________________________________________________
Epoch 1/70
310/310 [==============================] - 204s 644ms/step - loss: 4.7853 - accuracy: 0.1461 - val_loss: 3.0608 - val_accuracy: 0.2171
…
